…
        },
        "id": "7ZKj8392nbgP",
        "outputId": "0a2d5864-fce4-4fc2-a13e-9ab46893b488"
      },
      "source": [
        "model.summary()"
      ],
      "execution_count": null,
      "outputs": [
        {
          "output_type": "stream",
          "text": [
            "Model: \"sequential\"\n",
            "_________________________________________________________________\n",
            "Layer (type)                 Output Shape              Param #   \n",
            "=================================================================\n",
            "conv2d (Conv2D)              (None, 298, 298, 16)      448       \n",
            "_________________________________________________________________\n",
            "max_pooling2d (MaxPooling2D) (None, 149, 149, 16)      0         \n",
            "_________________________________________________________________\n",
            "conv2d_1 (Conv2D)            (None, 147, 147, 32)      4640      \n",
            "_________________________________________________________________\n",
            "max_pooling2d_1 (MaxPooling2 (None, 73, 73, 32)        0         \n",
            "_________________________________________________________________\n",
            "conv2d_2 (Conv2D)            (None, 71, 71, 64)        18496     \n",
            "_________________________________________________________________\n",
            "max_pooling2d_2 (MaxPooling2 (None, 35, 35, 64)        0         \n",
            "_________________________________________________________________\n",
            "conv2d_3 (Conv2D)            (None, 33, 33, 64)        36928     \n",
            "_________________________________________________________________\n",
            "max_pooling2d_3 (MaxPooling2 (None, 16, 16, 64)        0         \n",
            "_________________________________________________________________\n",
            "conv2d_4 (Conv2D)            (None, 14, 14, 64)        36928     \n",
            "_________________________________________________________________\n",
            "max_pooling2d_4 (MaxPooling2 (None, 7, 7, 64)          0         \n",
            "_________________________________________________________________\n",
            "flatten (Flatten)            (None, 3136)              0         \n",
            "_________________________________________________________________\n",
            "dense (Dense)                (None, 512)               1606144   \n",
            "_________________________________________________________________\n",
            "dense_1 (Dense)              (None, 1)                 513       \n",
            "=================================================================\n",
            "Total params: 1,704,097\n",
            "Trainable params: 1,704,097\n",
            "Non-trainable params: 0\n",
            "_________________________________________________________________\n"
          ],
          "name": "stdout"
        }
      ]
    },
    {
      "cell_type": "markdown",
…
